…
 'model': {'name': 'small', 'type': 'ddit', 'hidden_size': 768, 'cond_dim': 128, 'length': 1024, 'n_blocks': 12, 'n_heads': 12, 'scale_by_sigma': True, 'dropout': 0.1, 'tie_word_embeddings': False}, 'strategy': {'_target_': 'lightning.pytorch.strategies.DDPStrategy', 'find_unused_parameters': False}, 'noise': {'type': 'loglinear', 'sigma_min': 0.0001, 'sigma_max': 20}, 'lr_scheduler': {'_target_': 'transformers.get_constant_schedule_with_warmup', 'num_warmup_steps': 2500}}
info: utrlm
info: kuleshov-group/mdlm-owt
self.backbone: UtrLmModel(
  (embeddings): UtrLmEmbeddings(
    (word_embeddings): Embedding(26, 128, padding_idx=0)
  )
  (encoder): UtrLmEncoder(
    (layer): ModuleList(
      (0-5): 6 x UtrLmLayer(
        (attention): UtrLmAttention(
          (self): UtrLmSelfAttention(
            (query): Linear(in_features=128, out_features=128, bias=True)
            (key): Linear(in_features=128, out_features=128, bias=True)
            (value): Linear(in_features=128, out_features=128, bias=True)
            (dropout): Dropout(p=0.1, inplace=False)
            (rotary_embeddings): RotaryEmbedding()
          )
          (output): UtrLmSelfOutput(
            (dense): Linear(in_features=128, out_features=128, bias=True)
            (dropout): Dropout(p=0.1, inplace=False)
          )
          (layer_norm): LayerNorm((128,), eps=1e-12, elementwise_affine=True)
        )
        (layer_norm): LayerNorm((128,), eps=1e-12, elementwise_affine=True)
        (intermediate): UtrLmIntermediate(
          (dense): Linear(in_features=128, out_features=512, bias=True)
          (activation): GELUActivation()
        )
        (output): UtrLmOutput(
          (dense): Linear(in_features=512, out_features=128, bias=True)
          (dropout): Dropout(p=0.1, inplace=False)
        )
      )
    )
    (emb_layer_norm_after): LayerNorm((128,), eps=1e-12, elementwise_affine=True)
  )
  (pooler): UtrLmPooler(
    (dense): Linear(in_features=128, out_features=128, bias=True)
    (activation): Tanh()
  )
)
gen info: gpt2
gen info: gpt2
self.ebm: UtrLmModel(
  (embeddings): UtrLmEmbeddings(
    (word_embeddings): Embedding(26, 128, padding_idx=0)
  )
  (encoder): UtrLmEncoder(
    (layer): ModuleList(
      (0-5): 6 x UtrLmLayer(
        (attention): UtrLmAttention(
          (self): UtrLmSelfAttention(
            (query): Linear(in_features=128, out_features=128, bias=True)
            (key): Linear(in_features=128, out_features=128, bias=True)
            (value): Linear(in_features=128, out_features=128, bias=True)
            (dropout): Dropout(p=0.1, inplace=False)
            (rotary_embeddings): RotaryEmbedding()
          )
          (output): UtrLmSelfOutput(
            (dense): Linear(in_features=128, out_features=128, bias=True)
            (dropout): Dropout(p=0.1, inplace=False)
          )
          (layer_norm): LayerNorm((128,), eps=1e-12, elementwise_affine=True)
        )
        (layer_norm): LayerNorm((128,), eps=1e-12, elementwise_affine=True)
        (intermediate): UtrLmIntermediate(
          (dense): Linear(in_features=128, out_features=512, bias=True)
          (activation): GELUActivation()
        )
        (output): UtrLmOutput(
          (dense): Linear(in_features=512, out_features=128, bias=True)
          (dropout): Dropout(p=0.1, inplace=False)
        )
      )
    )
    (emb_layer_norm_after): LayerNorm((128,), eps=1e-12, elementwise_affine=True)
  )
  (pooler): UtrLmPooler(
    (dense): Linear(in_features=128, out_features=128, bias=True)
    (activation): Tanh()
  )
)
stride_length: 1
num_strides: 1
num_sample_batches: 2
semi_ar: False
model: EBM(
  (backbone): UtrLmModel(
    (embeddings): UtrLmEmbeddings(
      (word_embeddings): Embedding(26, 128, padding_idx=0)
    )
    (encoder): UtrLmEncoder(
      (layer): ModuleList(
        (0-5): 6 x UtrLmLayer(
          (attention): UtrLmAttention(
            (self): UtrLmSelfAttention(
              (query): Linear(in_features=128, out_features=128, bias=True)
              (key): Linear(in_features=128, out_features=128, bias=True)
              (value): Linear(in_features=128, out_features=128, bias=True)
              (dropout): Dropout(p=0.1, inplace=False)
              (rotary_embeddings): RotaryEmbedding()
            )
            (output): UtrLmSelfOutput(
              (dense): Linear(in_features=128, out_features=128, bias=True)
              (dropout): Dropout(p=0.1, inplace=False)
            )
            (layer_norm): LayerNorm((128,), eps=1e-12, elementwise_affine=True)
          )
          (layer_norm): LayerNorm((128,), eps=1e-12, elementwise_affine=True)
          (intermediate): UtrLmIntermediate(
            (dense): Linear(in_features=128, out_features=512, bias=True)
            (activation): GELUActivation()
          )
          (output): UtrLmOutput(
            (dense): Linear(in_features=512, out_features=128, bias=True)
            (dropout): Dropout(p=0.1, inplace=False)
          )
        )
      )
      (emb_layer_norm_after): LayerNorm((128,), eps=1e-12, elementwise_affine=True)
    )
    (pooler): UtrLmPooler(
      (dense): Linear(in_features=128, out_features=128, bias=True)
      (activation): Tanh()
    )
    (ebm): UtrLmModel(
      (embeddings): UtrLmEmbeddings(
        (word_embeddings): Embedding(26, 128, padding_idx=0)
      )
      (encoder): UtrLmEncoder(
        (layer): ModuleList(
          (0-5): 6 x UtrLmLayer(
            (attention): UtrLmAttention(
              (self): UtrLmSelfAttention(
                (query): Linear(in_features=128, out_features=128, bias=True)
                (key): Linear(in_features=128, out_features=128, bias=True)
                (value): Linear(in_features=128, out_features=128, bias=True)
                (dropout): Dropout(p=0.1, inplace=False)
                (rotary_embeddings): RotaryEmbedding()
              )
              (output): UtrLmSelfOutput(
                (dense): Linear(in_features=128, out_features=128, bias=True)
                (dropout): Dropout(p=0.1, inplace=False)
              )
              (layer_norm): LayerNorm((128,), eps=1e-12, elementwise_affine=True)
            )
            (layer_norm): LayerNorm((128,), eps=1e-12, elementwise_affine=True)
            (intermediate): UtrLmIntermediate(
              (dense): Linear(in_features=128, out_features=512, bias=True)
              (activation): GELUActivation()
            )
            (output): UtrLmOutput(
              (dense): Linear(in_features=512, out_features=128, bias=True)
              (dropout): Dropout(p=0.1, inplace=False)
            )
          )
        )
        (emb_layer_norm_after): LayerNorm((128,), eps=1e-12, elementwise_affine=True)
      )
      (pooler): UtrLmPooler(
        (dense): Linear(in_features=128, out_features=128, bias=True)
        (activation): Tanh()
      )
    )
  )
  (softplus): Softplus(beta=1.0, threshold=20.0)
  (train_metrics): MetricCollection(
    (bpd): BPD()
    (nll): NLL()
    (ppl): Perplexity(),
    prefix=train/
  )
  (valid_metrics): MetricCollection(
    (bpd): BPD()
    (nll): NLL()
    (ppl): Perplexity(),
    prefix=val/
  )
  (test_metrics): MetricCollection(
    (bpd): BPD()
    (nll): NLL()
    (ppl): Perplexity(),
    prefix=test/
  )
  (gen_ppl_metric): Perplexity()
  (entropy_metric): MeanMetric()
  (time_metric): MeanMetric()
  (noise): LogLinearNoise()
  (ebm): UtrLmModel(
    (embeddings): UtrLmEmbeddings(
      (word_embeddings): Embedding(26, 128, padding_idx=0)
    )
    (encoder): UtrLmEncoder(
      (layer): ModuleList(
        (0-5): 6 x UtrLmLayer(
          (attention): UtrLmAttention(
            (self): UtrLmSelfAttention(
              (query): Linear(in_features=128, out_features=128, bias=True)
              (key): Linear(in_features=128, out_features=128, bias=True)
              (value): Linear(in_features=128, out_features=128, bias=True)
              (dropout): Dropout(p=0.1, inplace=False)
              (rotary_embeddings): RotaryEmbedding()
            )
            (output): UtrLmSelfOutput(
              (dense): Linear(in_features=128, out_features=128, bias=True)
              (dropout): Dropout(p=0.1, inplace=False)
            )
            (layer_norm): LayerNorm((128,), eps=1e-12, elementwise_affine=True)
          )
          (layer_norm): LayerNorm((128,), eps=1e-12, elementwise_affine=True)
          (intermediate): UtrLmIntermediate(
            (dense): Linear(in_features=128, out_features=512, bias=True)
            (activation): GELUActivation()
          )
          (output): UtrLmOutput(
            (dense): Linear(in_features=512, out_features=128, bias=True)
            (dropout): Dropout(p=0.1, inplace=False)
          )
        )
      )
      (emb_layer_norm_after): LayerNorm((128,), eps=1e-12, elementwise_affine=True)
    )
    (pooler): UtrLmPooler(
      (dense): Linear(in_features=128, out_features=128, bias=True)
      (activation): Tanh()
    )
  )
)
