…
         [-0.4947,  0.0974,  0.8897,  ..., -0.6938, -0.3021, -0.5741],
         ...,
         [-0.4947,  0.0974,  0.8897,  ..., -0.6938, -0.3021, -0.5741],
         [-0.4947,  0.0974,  0.8897,  ..., -0.6938, -0.3021, -0.5741],
         [-0.4947,  0.0974,  0.8897,  ..., -0.6938, -0.3021, -0.5741]]],
       grad_fn=<NativeLayerNormBackward0>), pooler_output=tensor([[… grad_fn=<TanhBackward0>), hidden_states=None, past_key_values=None, attentions=None, cross_attentions=None)
x: tensor([[4, 4, 4,  ..., 4, 4, 4]], device='cuda:0')
backbone: UtrLmModel(
  (embeddings): UtrLmEmbeddings(
    (word_embeddings): Embedding(26, 128, padding_idx=0)
  )
  (encoder): UtrLmEncoder(
    (layer): ModuleList(
      (0-5): 6 x UtrLmLayer(
        (attention): UtrLmAttention(
          (self): UtrLmSelfAttention(
            (query): Linear(in_features=128, out_features=128, bias=True)
            (key): Linear(in_features=128, out_features=128, bias=True)
            (value): Linear(in_features=128, out_features=128, bias=True)
            (dropout): Dropout(p=0.1, inplace=False)
            (rotary_embeddings): RotaryEmbedding()
          )
          (output): UtrLmSelfOutput(
            (dense): Linear(in_features=128, out_features=128, bias=True)
            (dropout): Dropout(p=0.1, inplace=False)
          )
          (layer_norm): LayerNorm((128,), eps=1e-12, elementwise_affine=True)
        )
        (layer_norm): LayerNorm((128,), eps=1e-12, elementwise_affine=True)
        (intermediate): UtrLmIntermediate(
          (dense): Linear(in_features=128, out_features=512, bias=True)
          (activation): GELUActivation()
        )
        (output): UtrLmOutput(
          (dense): Linear(in_features=512, out_features=128, bias=True)
          (dropout): Dropout(p=0.1, inplace=False)
        )
      )
    )
    (emb_layer_norm_after): LayerNorm((128,), eps=1e-12, elementwise_affine=True)
  )
  (pooler): UtrLmPooler(
    (dense): Linear(in_features=128, out_features=128, bias=True)
    (activation): Tanh()
  )
)
x: tensor([[4, 4, 4,  ..., 4, 4, 4]], device='cuda:0')
output: BaseModelOutputWithPoolingAndCrossAttentions(last_hidden_state=tensor([[[-0.4947,  0.0974,  0.8897,  ..., -0.6938, -0.3021, -0.5741],
         [-0.4947,  0.0974,  0.8897,  ..., -0.6938, -0.3021, -0.5741],
         [-0.4947,  0.0974,  0.8897,  ..., -0.6938, -0.3021, -0.5741],
…
